model/save_parse_97.ckpt (torch_old, 7005 bytes, 1 tensors)

weight f4 [17, 97]
00000000: e020 2cbf 2aba 07c0 9a2c 14bf 3c80 083f
00000010: 69e5 1c3d 16c1 183f 9374 3cbf f7ab 0640
00000020: 5311 adbf 8209 56bf c03c 97bf 9055 e03f
00000030: 1020 84bf 9787 19bf 10f2 cd3f 5c93 c8bf
00000040: fff2 46bf 6a7b 173f 0d72 333f 8716 a8bd
00000050: e3c7 afbf 2d03 03bd a168 ecbf 860f 843f
00000060: cbe1 f33e b370 d73f dbbe 0d3f 079f e7be
00000070: 6ef9 f8bf bbfd a53f 3b4e b53d 7769 48bf
00000080: 5615 3ebf f711 bfbe fb64 e63f 51fa 743f
00000090: e59f bfbf 7966 b5be db3c 20bf bf97 afbf
000000a0: 0393 7ebf 7b53 95bc 28bc aebc d809 5bbf
000000b0: aeff 07bf 16fa 8dbf 9fd5 ac3f 01a1 47bf
000000c0: 9ab3 abbf e277 033f e002 803d 79d2 8e3e
000000d0: 08b6 053e ec95 7ebe 3f8d 67be 22eb 103e
000000e0: 31a1 b33f 0677 9dbd 52da 29be 8913 23bd
000000f0: 9be1 7b3e 435a 9a3d f970 89bf 229f 1740
00000100: 7926 a53f 1f3f 9bbe 9482 e1bf 8990 c93f
00000110: 3765 48bf 5364 5d3e 0386 fdbe 8cef 1a3f
00000120: ce04 773e c43f d13e 0496 a83f a2f3 203f
00000130: 7378 76bf 5860 97bd ba1d 8c3f a241 61bf
00000140: df4b 243f 2547 97bf 6a7e c73f 8e9c 5ebf
00000150: 7b9f 01bf ca9c c13e 7c92 1c40 320b 073f
00000160: 2886 1abf 7405 873f cdaf 663e 5c12 d3bf
00000170: 9d35 803f b919 b13f cdb7 f93e 70e1 183f
00000180: d86a 483f 557e dfbf d1f7 b3bd eff6 fb3e
00000190: f2de f5be 320f 12be 27ba f33e 6f7a c0bf
000001a0: 1438 f3be 73ce d73f 1433 b83d ff46 d5be
000001b0: 3cea 21bf 3db2 993f 06bf a6bd f85e 9e3f
000001c0: a141 84be e91b 853f dc22 9ebf 89c8 983e
000001d0: 0320 09bb 5d05 ca3f 6c6d 8b3f 7c26 f7bf
000001e0: 3ca7 403f 8ca9 793e 4189 dd3f 6818 8a3e
000001f0: df60 19c0 5cac 903f 453c fe3e 1511 7e3e
00000200: 7d6b 533f a697 143f 8aa5 1ebe ff64 0ebf
00000210: 2c25 363e 0319 62bf 3cea d3bf 20d0 0b3e
00000220: 685f 883f 3938 30bf 6a30 623e 2fd0 cdbe
00000230: 211e da3f b278 93bf d9d4 bebd addf e53f
00000240: 20d9 e7bf aa45 44bd 3f0a dabf 5a97 0f3f
00000250: 1141 a8bf f147 f63e f680 44bf 9519 293e
00000260: 9506 1f3f 4dd6 89bf 7f7b 933f 6813 b5bf
00000270: f109 323f 8c4f 273f 355e 04be de6c 613d
00000280: 3917 6a3f dba3 c1be 4731 0bc0 cb27 1ebf
00000290: dbf2 2440 39c3 27bf 3c15 ab3f d325 7e3f
000002a0: e93f 973f 764c 853d 324c 9bbd 8801 a2be
000002b0: cc1c 813e aa55 063f c03a 63bf 1aca e13f
000002c0: 4c2c 9abf 046d fe3c 3664 853f bac0 cf3e
000002d0: 3061 273e d542 543f 2535 f9be 07fa f03e
000002e0: 9b4a 8c3f 4c2d f6be 4966 5d3b e750 8abf
000002f0: 36fa 06bf 95c0 983e 123d a5be 725c b73f
00000300: 81e4 00bf 23b6 7b3d 8e07 22be 100c 4abf
00000310: a080 ea3e b742 aa3e 84ab e93e b70a 89bf
00000320: 3949 a1be 2f1c b7be 9ca6 8c3e 92ff b83f
00000330: 00ab bfbf d9a5 f2bd a604 81bf 4080 9cbf
00000340: 84ee a93d 8495 2ebf f0d2 703f 5be1 ae3e
00000350: 044a 96bf cab4 f63e a03d 05bf 43b0 e1be
00000360: 39df 38bf e30c 493f d7c2 42be 9c0e 60bf
00000370: d1e2 4c40 95af 41bf 7056 4bbd 9fb7 0bbf
00000380: 6fbc 343e 9f9c 8dbf 28f0 3f3f 24ca 9b3f
00000390: 6e7f 1e3f 0ce8 be3e e7ca f7bf 4819 463e
000003a0: d6d3 4c3f 453e 08c0 d06e 9b3f 8612 d3be
000003b0: f07b a1bf f558 70be 320d 88bf c166 7b3f
000003c0: 15f9 ea3e a6a5 8bbd 8d73 f9be d77e 5a3e
000003d0: 150d 89bf e4c7 df3f ca4a cd3f dd2a ffbd
000003e0: 72dc 443f ee33 55be 5b4d 00c0 33b0 1b3e
000003f0: f6c3 fabf b33e a73f 5ccb f33e a387 c33f
-0.67237663 -2.1207376 -0.57880557 0.5332067 0.03830472 0.59669626 -0.7361538 2.104246
-1.3520912 -0.8360826 -1.1815414 1.7526112 -1.0322285 -0.5997252 1.6089497 -1.566997
-0.7771453 0.5917269 0.700959 -0.08207422 -1.3732876 -0.03198545 -1.846943 1.0317237
0.47633204 1.6831268 0.5536935 -0.45238516 -1.945112 1.2968057 0.08852812 -0.78285927
-0.74251306 -0.37318394 1.7999567 0.9569445 -1.4970671 -0.35429743 -0.6259286 -1.3718184
-0.9944307 -0.018228283 -0.021329954 -0.85561895 -0.5312451 -1.1091945 1.3502692 -0.7798005
-1.3414185 0.513548 0.06250548 0.27894953 0.1305772 -0.24861878 -0.22612475 0.14152196
1.4033567 -0.076887175 -0.16587189 -0.039813552 0.2459778 0.07536747 -1.0737602 2.3690877
1.2902366 -0.30321595 -1.7617974 1.5747234 -0.7827944 0.21620302 -0.49516305 0.6052177
0.24122927 0.40868962 1.3170781 0.62871754 -0.9627754 -0.07391423 1.0946572 -0.8799077
0.6417827 -1.1818587 1.5585454 -0.86957633 -0.5063397 0.37814933 2.4464407 0.5275146
-0.60360956 1.0548539 0.22528 -1.6489978 1.0016361 1.3835975 0.4877304 0.5971899
0.7828803 -1.7460428 -0.087875016 0.49211833 -0.48021656 -0.14263609 0.4760296 -1.5037364
-0.47503722 1.6859878 0.089941174 -0.41655728 -0.6324804 1.2007519 -0.081419036 1.2372732
-0.2583132 1.0399143 -1.2354388 0.29840496 -0.0020923621 1.5782887 1.0892768 -1.930862
0.7525518 0.24381083 1.7307512 0.26971745 -2.3965375 1.13026 0.49655357 0.24811204
0.8258589 0.580439 -0.15492836 -0.5562286 0.17787617 -0.88319415 -1.6555858 0.13653612
1.0654116 -0.6883579 0.22088781 -0.40197894 1.7040445 -1.1521208 -0.09317941 1.7958885
-1.8113136 -0.047918 -1.7034377 0.5609032 -1.3144857 0.48101762 -0.7675928 0.16513665
0.6211942 -1.0768524 1.1522063 -1.4146547 0.6954642 0.65355754 -0.12926562 0.055035464
0.91441685 -0.37820324 -2.1748827 -0.6177947 2.5773227 -0.6553226 1.3365855 0.99276465
1.1816379 0.065087244 -0.075828925 -0.31641793 0.25217283 0.52474463 -0.8876152 1.7639802
-1.2044768 0.031057842 1.0421207 0.40576726 0.16345668 0.8291448 -0.4867336 0.47065756
1.0960268 -0.48081434 0.003378289 -1.080594 -0.5272554 0.29834428 -0.32273155 1.4325087
-0.5034867 0.061452996 -0.15823194 -0.78924656 0.45801258 0.33254024 0.4563867 -1.0706395
-0.31501177 -0.3576369 0.27470863 1.4452994 -1.497406 -0.11848039 -1.0079544 -1.2226639
0.08297446 -0.6819689 0.94071865 0.34156308 -1.1741338 0.48184806 -0.5204716 -0.4407979
-0.7221561 0.7853529 -0.19019638 -0.8752229 3.2013438 -0.7565854 -0.04964298 -0.5457706
0.17650007 -1.1063422 0.74975824 1.2171063 0.6191319 0.37286413 -1.9358796 0.19345582
0.80010736 -2.1288006 1.2143192 -0.4122507 -1.2615948 -0.23471434 -1.0629027 0.98203665
0.4589316 -0.06818704 -0.4872097 0.21337448 -1.0707117 1.7482877 1.6038449 -0.124593474
0.7689887 -0.20820591 -2.0047214 0.15203933 -1.9591053 1.3066009 0.47616088 1.5275768
